cnn_100_100.pth (torch, 71243 bytes, 22 tensors)

weight f4 [16, 3, 3]
0.08224738 0.038409155 -0.24263963 -0.10743214 -0.013640325 -0.068894595 -0.6130455 -0.32494435
-0.28136414 -0.32599124 -0.11698815 -0.12986901 0.17556006 0.2263581 -0.1038057 0.1482512
0.0004366986 0.13551338 -0.27078104 -0.119583264 0.039231297 0.16613099 0.27773497 0.21142781
-0.5351534 -0.4113086 -0.13639498 -0.3787654 -0.11279345 -0.23880072 0.19202848 0.021602426
0.06417546 0.5513174 0.012678148 -0.28023845 -0.21113259 0.2050935 0.72675353 -0.084677085
-0.036681727 -0.08858348 -0.27618217 -0.13658385 0.17703031 -0.010352782 0.007945797 0.3031919
-0.23092231 0.076033056 -0.36120644 0.027434139 0.16896985 -0.27073714 -0.18616101 0.13879156
-0.35862142 0.14478016 -0.21260996 0.20554347 0.03033325 0.07775377 -0.16761057 -0.44680464
-0.17261772 0.36514834 0.3067653 0.11538085 -1.0901729 -0.6765332 -0.9240856 0.058739834
-0.16431606 -0.040994674 0.22920308 -0.049736828 0.18503788 -0.2199202 0.26112357 -0.31440383
-0.3175015 0.04982976 -0.01448241 -0.030448016 -0.31854302 -0.0667084 -2.3009741 0.56027615
0.108985834 0.081859626 -0.37439194 -0.5019606 -0.3230905 -0.18616918 -0.17927694 -0.15611227
-0.73275936 -0.39725274 -0.009436793 -0.12546217 0.19543311 -0.31083515 0.19988474 -0.23888293
0.20582925 -0.23023538 -0.20685232 0.014316291 0.18193403 -0.07669511 0.092098 0.27748597
0.168914 0.18184198 0.036567885 0.37584975 -0.08995316 -0.29993102 -0.29955253 0.18442407
-0.2311033 -0.30430353 0.020731568 -0.08186516 0.32959643 -0.2593435 0.24912466 -0.034682963
0.42698303 -0.26815692 -0.10638213 -0.2068572 -0.17080827 0.5288725 0.17797545 -0.13404916
-0.21487719 0.35998312 -0.39808643 -0.08553825 -0.07271294 -0.50559783 -0.006820324 -0.23418924
00000000: 5071 a83d eb52 1d3d 8676 78be 6205 dcbd
00000010: ab7b 5fbc 9c18 8dbd 8df0 1cbf 1b5f a6be
00000020: f60e 90be 53e8 a6be 7c97 efbd 62fc 04be
00000030: 04c6 333e 6bca 673e 1598 d4bd 2acf 173e
00000040: b2f4 e439 05c4 0a3e d0a3 8abe 12e8 f4bd
00000050: ffb0 203d 3e1e 2a3e 4733 8e3e 8880 583e
00000060: d0ff 08bf 0a97 d2be 20ab 0bbe 8aed c1be
00000070: 4100 e7bd 2d88 74be 1da3 443e 92f7 b03c
00000080: 6c6e 833d 2323 0d3f 02b8 4f3c 6a7b 8fbe
00000090: 2433 58be 0804 523e 850c 3a3f 2e6b adbd
000000a0: 943f 16bd 416b b5bd c067 8dbe a3dc 0bbe
000000b0: 6f47 353e b79e 29bc 172f 023c f83b 9b3e
000000c0: e676 6cbe 38b7 9b3d 0df0 b8be 8fbd e03c
000000d0: 6f06 2d3e 0f9e 8abe fea0 3ebe 601f 0e3e
000000e0: 3a9d b7be 4041 143e 6db6 59be fd79 523e
000000f0: 707d f83c 5e3d 9f3d 1ba2 2bbe 94c3 e4be
00000100: b3c2 30be b9f4 ba3e 5710 9d3e cc4c ec3d
00000110: c98a 8bbf 4831 2dbf e090 6cbf 2e99 703d
00000120: 7842 28be 08ea 27bd 36b4 6a3e d8b8 4bbd
00000130: 927a 3d3e c332 61be fdb1 853e 8af9 a0be
00000140: 8e8f a2be 4a1a 4c3d a147 6dbc 1e6e f9bc
00000150: 1218 a3be 6a9e 88bd 2943 13c0 426e 0f3f
00000160: f733 df3d 05a6 a73d 4db0 bfbe 7d80 00bf
00000170: 1e6c a5be 22a3 3ebe 6094 37be e5db 1fbe
00000180: 1e96 3bbf b664 cbbe c79c 1abc 2879 00be
00000190: 9e1f 483e c925 9fbe 96ae 4c3e ba9d 74be
000001a0: e7c4 523e d3c2 6bbe 18d1 53be e08e 6a3c
000001b0: ea4c 3a3e 5312 9dbd e09d bc3d a412 8e3e
000001c0: cbf7 2c3e c934 3a3e 35c8 153d 616f c03e
000001d0: 5d39 b8bd 8f90 99be f35e 99be aad9 3c3e
000001e0: 58a6 6cbe accd 9bbe 40d5 a93c eca8 a7bd
000001f0: ddc0 a83e acc8 84be 891a 7f3e b90f 0ebd
00000200: 859d da3e dd4b 89be e0de d9bd 60d2 53be
00000210: 5de8 2ebe 3064 073f 323f 363e 2f44 09be
00000220: c408 5cbe b54f b83e fcd1 cbbe ae2e afbd
00000230: 86ea 94bd dc6e 01bf 067d dfbb 4ecf 6fbe

bias f4 [16]
0.026194913 -0.33406484 0.2824303 0.022680791 -0.10151495 -0.32330167 -0.22566807 0.07418427
-0.27171636 0.032986943 0.4668965 -0.26577067 -0.31030226 -0.31282812 -0.35105735 -0.05409454
00000000: b796 d63c 8c0a abbe b49a 903e 11cd b93c
00000010: 12e7 cfbd cc87 a5be 8815 67be eced 973d
00000020: 681e 8bbe 511d 073d 0f0d ef3e 1813 88be
00000030: f0df 9ebe 022b a0be cabd b3be 3d92 5dbd

weight f4 [32, 16, 3]
-0.087169826 -0.040819857 -0.23635317 0.1288579 -0.06066391 0.09392384 -0.21811469 0.001011304
-0.22430992 0.11176609 -0.05970452 -0.242625 -0.11720684 0.008594267 0.058305457 -0.07563219
-0.2385858 -0.08801243 -0.0064172894 0.072835214 -0.121786095 -0.032483496 0.06453058 0.005767343
-0.0037646294 -0.12897669 -0.109671 -0.052830566 -0.19863828 -0.0715312 -0.043004643 -0.13935286
0.13826516 -0.014827315 0.09491457 -0.08547142 0.026706224 -0.07500754 -0.26551428 -0.058292203
-0.10426792 -0.0009459555 -0.2642356 -0.14792106 -0.0610392 0.06717814 0.098355755 0.09246981
-0.0013801517 0.16645315 -0.070006534 0.11595927 0.13726312 -0.15990034 0.0055995197 0.2690284
-0.27232867 -0.6360621 0.32245484 0.005008627 0.49346516 -0.11604767 0.33761123 -0.06682526
0.19015032 0.034606352 -0.12879923 -0.11421518 0.02792874 0.00073731394 -0.083940126 0.078209735
-0.09925842 0.047039896 -0.13292152 -0.2726207 0.12704259 0.3319562 0.3795426 -0.5134752
-2.160078 -0.15936935 -0.0008751452 -0.039500907 -0.010117281 -0.01669627 -0.016229827 -0.08185954
-0.04610938 -0.10919593 0.24007422 0.07023406 0.018657498 0.0036890134 0.19955458 -0.071139276
-0.19594607 -0.18212077 -0.016850894 -0.120182045 0.13463181 -0.097264655 -0.2638435 0.08495899
-0.18175386 -0.27156168 0.02350249 -0.13144568 -0.38011932 -0.15907869 0.016255725 -0.2172397
-0.12138612 0.12211379 0.081785604 -0.045390073 0.11273441 -0.11189162 -0.0028762652 -0.120493524
0.08414982 -0.14314139 0.0844107 -0.14219733 -0.34450048 -0.28326544 -0.111989975 -0.19913179
-0.14213124 -0.12357599 -0.104899585 -0.028742589 -0.38219085 -0.36254036 0.0028048954 0.034890875
-0.07149636 0.07399683 -0.18799429 0.0069237477 -0.066080086 -0.08688805 -0.014480633 -0.010108303
-0.18392232 0.2724734 -0.12772721 0.13540806 0.05816005 0.09324245 -0.49169543 0.24099576
-0.4767078 0.044625223 -0.16571821 0.010497887 -1.0184349 0.32279044 0.20213036 -0.06545662
0.1847827 0.07486262 -0.07944519 -0.12654875 0.033258095 0.09444542 0.34559345 0.23002787
-0.02271314 0.027061537 -0.111326836 0.32348073 -0.72575265 -0.07557095 0.6380029 0.33394653
-1.4310753 -0.15303893 -0.07231636 -0.03120757 -1.5894525 -0.10482139 -0.05302164 0.11247659
0.06645499 0.05523421 -0.84997636 -0.044091888 -0.047445055 0.017817702 0.12989786 0.013191128
-0.085537225 -0.12108074 0.047152404 0.13285187 0.07242133 0.068136886 0.018968433 -0.04591852
0.018031815 0.07085498 0.003324776 -6.7400583e-06 -0.16322061 -0.13536687 -0.154616 -0.022526946
-0.17615974 -0.18481341 -0.022167422 0.024248555 0.09253684 -0.017520914 -0.18315484 0.005615278
-0.104877904 0.013638526 -0.117854334 -0.13204274 0.025429878 0.034437615 -0.17921314 -0.11425035
0.017434416 0.13947827 -0.04125014 0.1329248 0.07670732 -0.107869685 -0.059600644 0.089194775
-0.1265231 0.0578492 0.047056492 -0.11200208 -0.210846 -0.09575818 -0.17092443 -0.0637077
0.04783672 -0.17328124 -0.08299236 -0.10311268 0.09374197 0.08722777 0.03489378 -0.2014787
-0.124013476 -0.17819473 -0.2555869 -0.103260614 -0.036913726 -0.13996355 -0.09310461 -0.13974017
00000000: 1886 b2bd b932 27bd 9106 72be 53f3 033e
00000010: b87a 78bd 245b c03d 7559 5fbe bb8d 843a
00000020: 80b1 65be 9fe5 e43d ba8c 74bd b072 78be
00000030: 240a f0bd f8ce 0c3c b4d1 6e3d 0de5 9abd
00000040: d64f 74be dc3f b4bd 2048 d2bb a12a 953d
00000050: fd6a f9bd 6a0d 05bd 9c28 843d fbfb bc3b
00000060: 00b8 76bb 7712 04be 309b e0bd dd64 58bd
00000070: d567 4bbe f37e 92bd a325 30bd 84b2 0ebe
00000080: 6295 0d3e 44ee 72bc 9262 c23d a40b afbd
00000090: 03c7 da3c 8e9d 99bd 7df1 87be cec3 6ebd
000000a0: 6b8a d5bd 00fa 77ba e349 87be 9e78 17be
000000b0: 3d04 7abd b194 893d be6e c93d d060 bd3d
000000c0: 35e6 b4ba b272 2a3e 965f 8fbd 0e7c ed3d
000000d0: b48e 0c3e eabc 23be 2d7c b73b 17be 893e
000000e0: aa6e 8bbe f7d4 22bf cd18 a53e 691f a43b
000000f0: 77a7 fc3e 67aa edbd 61db ac3e afdb 88bd
00000100: c4b6 423e 64bf 0d3d f2e3 03be a6e9 e9bd
00000110: d0ca e43c 4d48 413a cde8 abbd 6d2c a03d
00000120: 0048 cbbd e8ac 403d 941c 08be f194 8bbe
00000130: 7417 023e 2af6 a93e 6853 c23e 1c73 03bf
00000140: b83e 0ac0 b831 23be 006a 65ba b4cb 21bd
00000150: f4c2 25bc 9ec6 88bc 6af4 84bc f9a5 a7bd
00000160: 30dd 3cbd 1ea2 dfbd 04d6 753e e0d6 8f3d
00000170: 9cd7 983c 60c3 713b 0958 4c3e 78b1 91bd
00000180: 16a6 48be de7d 3abe e30a 8abc 0122 f6bd
00000190: ecdc 093e b132 c7bd 7f16 87be fbfe ad3d
000001a0: af1d 3abe 220a 8bbe 4b88 c03c b299 06be
000001b0: 009f c2be 86e5 22be ba2a 853c 1574 5ebe
000001c0: 4999 f8bd cb16 fa3d 367f a73d f1ea 39bd
000001d0: 4ce1 e63d 6f27 e5bd b97f 3cbb 4fc5 f6bd
000001e0: be56 ac3d a893 12be 84df ac3d 2d9c 11be
000001f0: 5e62 b0be 2b08 91be 005b e5bd 34e9 4bbe
00000200: da8a 11be 6915 fdbd 98d5 d6bd 9475 ebbc
00000210: 85ae c3be e49e b9be 56d2 373b bce9 0e3d
00000220: af6c 92bd a68b 973d 9381 40be 9be0 e23b
00000230: ff54 87bd 5df2 b1bd 2d40 6dbc 4c9d 25bc
00000240: 2256 3cbe a281 8b3e ecca 02be 69a8 0a3e
00000250: 3c39 6e3d e6f5 be3d 81bf fbbe 98c7 763e
00000260: 0b13 f4be f0c8 363d 09b2 29be 54ff 2b3c
00000270: 135c 82bf ca44 a53e 43fb 4e3e 1f0e 86bd
00000280: ad37 3d3e 9351 993d 29b4 a2bd ff95 01be
00000290: a439 083d 9a6c c13d a0f1 b03e 6d8c 6b3e
000002a0: e810 babc 28b0 dd3c 53ff e3bd 449f a53e
000002b0: edca 39bf f1c4 9abd 2854 233f 0afb aa3e
000002c0: 7a2d b7bf 3db6 1cbe 9a1a 94bd 05a7 ffbc
000002d0: 2e73 cbbf 99ac d6bd 382d 59bd 205a e63d
000002e0: 8e19 883d 443d 623d 0d98 59bf b299 34bd
000002f0: bf55 42bd 6ef6 913c f203 053e 9a1f 583c
00000300: 242e afbd 2ef9 f7bd e122 413d 520a 083e
00000310: a251 943d 5a8b 8b3d b063 9b3c 0f15 3cbd
00000320: 75b7 933c 6a1c 913d 7ce4 593b a928 e2b6
00000330: 4e23 27be 9d9d 0abe a853 1ebe 6e8a b8bc
00000340: 3863 34be ba3f 3dbe 7498 b5bc e8a4 c63c
00000350: f483 bd3d 0588 8fbc f18c 3bbe 5e00 b83b
00000360: 3aca d6bd 2074 5f3c 9d5d f1bd 3636 07be
00000370: 5252 d03c 750e 0d3d a683 37be 16fc e9bd
00000380: 9fd2 8e3c 64d3 0e3e e8f5 28bd 701d 083e
00000390: ba18 9d3d c8ea dcbd ce1f 74bd c0ab b63d
000003a0: 468f 01be 48f3 6c3d 4fbe 403d 5961 e5bd
000003b0: 04e8 57be dd1c c4bd d006 2fbe 2f79 82bd
000003c0: 70f0 433d a370 31be e6f7 a9bd be2c d3bd
000003d0: cafb bf3d 79a4 b23d c8ec 0e3d 6f50 4ebe
000003e0: c7fa fdbd ae78 36be 49dc 82be 4d7a d3bd
000003f0: d932 17bd 9b52 0fbe a1ad bebd 0c18 0fbe

bias f4 [32]
-0.0080785435 0.03608893 0.0346295 -0.047140624 -0.07831708 0.033993676 0.113371156 0.07081492
-0.09421201 0.00659392 -0.11755159 -0.14903545 -0.11040616 -0.10782012 0.19021362 0.0036961914
-0.10276864 0.122192204 0.17747454 -0.03358977 0.03218499 -0.09901141 -0.06513205 0.013495889
-0.12761247 0.037690412 -0.14243653 -0.12166509 0.1610614 -0.036259755 0.22343357 -0.011955304
00000000: de5b 04bc fcd1 133d aad7 0d3d 8716 41bd
00000010: b564 a0bd f43c 0b3d 232f e83d 6a07 913d
00000020: 3af2 c0bd cf11 d83b e3be f0bd c09c 18be
00000030: a01c e2bd ccd0 dcbd 5cc7 423e cd3b 723b
00000040: 5d78 d2bd e83f fa3d e3bb 353e 6d95 09bd
00000050: 68d4 033d 7ec6 cabd f463 85bd dc1d 5d3c
00000060: d8ac 02be 4361 1a3d e2da 11be 8c2b f9bd
00000070: 48ed 243e 1c85 14bd c5cb 643e 2ee0 43bc

weight f4 [32, 32, 3]
-0.067213826 -0.022181757 0.04952227 -0.016850509 -0.09843319 0.0154670505 0.060523964 0.06689247
-0.12670442 0.05992696 0.016352948 -0.0882653 0.06665884 -0.054813437 0.05398412 -0.011109834
-0.03527452 -0.13714692 -0.050086062 -0.07957147 0.005864202 -0.11511318 -0.024690373 -0.0060219457
-0.048066165 -0.0924892 -0.027784087 -0.03689009 -0.09708261 -0.04168773 -0.022322975 -0.057521075
0.0025261417 -0.031705976 -0.057698745 -0.08269006 -0.06655179 -0.022219695 0.081631914 -0.012008339
-0.05480053 -0.07783534 -0.012332002 0.056057815 -0.16313204 0.0032609454 0.01359804 -0.06208144
-0.014881544 -0.0013020227 -0.13834676 -0.095053114 -0.10123403 -0.13399993 -0.011511939 -0.016271498
-0.088942304 0.025182523 -0.091327414 0.024609014 -0.10711818 0.04885871 0.024995886 -0.08338113
-0.09780663 0.07573941 0.0027591942 -0.086478636 -0.06288089 -0.04468588 -0.08534842 0.002320189
0.03443718 -0.098458566 -0.028154865 -0.10915814 0.02570303 -0.17131183 -0.08771239 -0.08996591
-0.035056174 -0.10888118 -0.044296846 -0.10663632 0.012016669 0.0146233095 -0.031740516 -0.08761633
-0.001699857 -0.114134364 -0.099420875 -0.0690087 -0.08239089 0.030555485 -0.0015865386 -0.029391829
-0.057682488 0.17483601 0.033994485 0.18103196 0.038111273 0.3937415 -0.40641785 -0.01677323
-0.23900454 -0.8138391 -0.013045254 0.062286757 0.11187093 -0.0068237646 -0.037270345 0.12151919
0.113254584 0.00066374347 -0.79613763 -0.08182513 -0.94504565 -0.22169508 -0.21067189 -1.1897564
0.040670786 0.008489962 0.1186204 0.12753388 -0.0942557 0.36724734 -0.033646826 0.019764125
-0.034043 0.038964048 0.055244535 -0.04789979 -0.02360384 -0.04596087 0.014468824 -0.04083068
0.12962745 0.07408541 -0.47311673 -2.1140516 0.24247546 0.0037605034 -0.046381857 -0.015867697
-0.05811626 -0.078217484 -0.07628397 -1.1278138 -0.16886225 -0.052276768 0.21465413 -0.15634494
0.25970677 -0.7869907 -0.3529417 -0.81688225 -0.021516336 -0.3497726 -0.404565 0.012086468
0.05118128 0.10088103 -0.12318269 0.11430783 0.025588784 -0.19523133 0.11661679 0.09545459
-0.023714073 -0.04871764 0.091990516 0.048285708 0.06179289 0.042999398 0.022823596 0.07636751
0.18307315 -0.7117574 -0.4705407 -0.5475176 -0.34552652 0.07509303 -0.14149639 0.14503789
0.07722951 0.036892142 0.53288645 -0.12783358 0.06663046 -0.24553996 0.1963153 0.07970879
-0.1024377 -0.029827453 -0.09614084 -0.1756909 -0.13005887 -0.037580684 0.0065832012 -0.05934189
-0.12151202 -0.056840602 0.05453913 -0.04021964 -0.07451192 -0.03299302 0.091917396 -0.013167663
-0.09185084 0.053020295 -0.035963587 0.012676554 0.08322457 -0.06083556 -0.01312191 0.056118578
-2.0878453e-05 -0.07425702 0.06332363 -0.112069495 -0.17078802 0.024985498 -0.07539316 -0.04345513
-0.016269498 -0.008174124 -0.014137958 0.087731585 0.07636432 -0.095789716 -0.09469207 -0.09988009
0.08493684 -0.012378655 -0.10256065 -0.1027222 -0.053434152 -0.0496841 0.06386483 0.06357185
0.01966748 -0.095247656 -0.06473903 -0.09801604 -0.105128184 -0.0683377 -0.012816312 -0.12121839
-0.09117492 -0.09219097 -0.0027418707 -0.06580132 0.0077747386 -0.102792226 -0.029026149 0.07561463
00000000: 67a7 89bd 84b6 b5bc ddd7 4a3d 140a 8abc
00000010: 5797 c9bd 8369 7d3c fae7 773d ebfe 883d
00000020: cebe 01be f975 753d 9ef6 853c 70c4 b4bd
00000030: 6e84 883d 0e84 60bd 741e 5d3d 0506 36bc
00000040: 047c 10bd 3e70 0cbe 0b27 4dbd 5ef6 a2bd
00000050: 7e28 c03b 75c0 ebbd 7743 cabc be53 c5bb
00000060: 07e1 44bd fa6a bdbd 749b e3bc 101a 17bd
00000070: 3fd3 c6bd c1c0 2abd acde b6bc 389b 6bbd
00000080: a08d 253b 20de 01bd 8555 6cbd 6859 a9bd
00000090: 4e4c 88bd 1406 b6bc a22e a73d a0be 44bc
000000a0: 8576 60bd 2268 9fbd 2a0c 4abc e19c 653d
000000b0: 160c 27be 96b5 553b 50ca 5e3c 1c49 7ebd
000000c0: b8d1 73bc a2a8 aaba c6aa 0dbe 35ab c2bd
000000d0: ca53 cfbd 4737 09be 929c 3cbc ce4b 85bc
000000e0: 6227 b6bd 944b ce3c de09 bbbd d898 c93c
000000f0: c760 dbbd 1220 483d 2cc4 cc3c bac3 aabd
00000100: d84e c8bd 441d 9b3d 99d3 343b b61b b1bd
00000110: b2c7 80bd 8b08 37bd 27cb aebd 500e 183b
00000120: 000e 0d3d a5a4 c9bd 08a5 e6bc 4e8e dfbd
00000130: 298f d23c 5e6c 2fbe 8ea2 b3bd 0c40 b8bd
00000140: 1097 0fbd 19fd debd 9c70 35bd 2564 dabd
00000150: 90e1 443c 9b96 6f3c 5802 02bd 3170 b3bd
00000160: bccd deba 47bf e9bd 2c9d cbbd 6f54 8dbd
00000170: 8ebc a8bd 7f4f fa3c 67f3 cfba 22c7 f0bc
00000180: 7944 6cbd 3608 333e cd3d 0b3d 7160 393e
00000190: 911a 1c3d 7c98 c93e 0016 d0be 0368 89bc
000001a0: 9bbd 74be c257 50bf c3bb 55bc 6620 7f3d
000001b0: 961c e53d e399 dfbb caa8 18bd 0edf f83d
000001c0: 05f2 e73d 12ff 2d3a adcf 4bbf ef93 a7bd
000001d0: 83ee 71bf 0904 63be 5fba 57be f049 98bf
000001e0: 6996 263d 7b19 0b3c 41ef f23d 3e98 023e
000001f0: 2209 c1bd d807 bc3e 41d1 09bd 60e8 a13c
00000200: ac70 0bbd c498 1f3d 1848 623d 9232 44bd
00000210: d75c c1bc 7741 3cbd a50e 6d3c 123e 27bd
00000220: 0fbd 043e 17ba 973d 5b3c f2be 9f4c 07c0
00000230: 7d4b 783e c772 763b e7fa 3dbd f9fc 81bc
00000240: 510b 6ebd 7d30 a0bd c53a 9cbd 345c 90bf
00000250: 3aea 2cbe 2a20 56bd 4bce 5b3e e318 20be
00000260: 49f8 843e 3978 49bf c6b4 b4be 321f 51bf
00000270: 0743 b0bc 6515 b3be 2523 cfbe 5206 463c
00000280: 76a3 513d b79a ce3d 3547 fcbd 391a ea3d
00000290: 929f d13c b9ea 47be c9d4 ee3d b27d c33d
000002a0: 0444 c2bc 268c 47bd 8665 bc3d 3cc7 453d
000002b0: 8b1a 7d3d 2320 303d 8df8 ba3c 9266 9c3d
000002c0: 8777 3b3e bc35 36bf b6ea f0be 1d2a 0cbf
000002d0: dae8 b0be 60ca 993d 6ee4 10be d084 143e
000002e0: 812a 9e3d 371c 173d 3f6b 083f cee6 02be
000002f0: 8d75 883d d46e 7bbe e106 493e 5d3e a33d
00000300: dbca d1bd b458 f4bc 7de5 c4bd 51e8 33be
00000310: 272e 05be 34ee 19bd e5b7 d73b 7b10 73bd
00000320: 4bdb f8bd b1d1 68bd 6c64 5f3d 59bd 24bd
00000330: b599 98bd b023 07bd 303f bc3d 2ebd 57bc
00000340: 4b1c bcbd cf2b 593d 8e4e 13bd 52b1 4f3c
00000350: a571 aa3d b52e 79bd 48fd 56bc 98dc 653d
00000360: 2324 afb7 1114 98bd d2af 813d b184 e5bd
00000370: 0ee3 2ebe 63ae cc3c bb67 9abd 02fe 31bd
00000380: 9c47 85bc c3ec 05bc e5a2 67bc 9eac b33d
00000390: e664 9c3d 662d c4bd eaed c1bd ef8d ccbd
000003a0: 5ef3 ad3d d8cf 4abc 510b d2bd 0460 d2bd
000003b0: c5dd 5abd 8e81 4bbd 90cb 823d f531 823d
000003c0: b21d a13c 3411 c3bd e695 84bd a2bc c8bd
000003d0: 724d d7bd a3f4 8bbd 82fb 51bc 5941 f8bd
000003e0: ebb9 babd 9fce bcbd f5b0 33bb d8c2 86bd
000003f0: 3cc3 fe3b bb84 d2bd 3fc8 edbc d8db 9a3d

bias f4 [32]
-0.10317456 0.16772543 -0.016843457 -0.12074637 0.12571484 -0.10730854 -0.09920691 -0.101431645
-0.033941794 -0.0805747 -0.0476451 -0.12105087 0.15729742 -0.05539981 0.17739783 -0.099374086
0.20626903 0.19303611 -0.0097880345 0.2532353 0.21723565 0.15012437 0.18763588 0.11375323
0.20206796 0.29290587 -0.007997076 0.13754955 -0.13393916 -0.099073045 0.1378467 -0.1346416
00000000: 2f4d d3bd 37c0 2b3e 4afb 89bc df49 f7bd
00000010: 64bb 003e 94c4 dbbd fe2c cbbd 65bb cfbd
00000020: 8d06 0bbd 5904 a5bd 8227 43bd 85e9 f7bd
00000030: 9312 213e e9ea 62bd c7a7 353e a484 cbbd
00000040: 3038 533e 42ab 453e fe5d 20bc 0fa8 813e
00000050: 0673 5e3e 34ba 193e 9f23 403e 74f7 e83d
00000060: e7ea 4e3e c2f7 953e 2b06 03bc cad9 0c3e
00000070: 5927 09be cfe6 cabd af27 0d3e 7ddf 09be

weight f4 [16, 32, 3]
0.013119794 -0.04290313 0.014954552 -0.03888708 0.0055712406 -0.11333378 -0.101026356 0.004868302
0.0570122 -0.045005053 0.03302522 -0.09302856 0.0204016 -0.0024046495 -0.14178154 -0.023998365
0.044122994 0.046064377 0.030325517 -0.073674865 0.08498311 -0.08921701 -0.002078496 -0.054339457
-0.08373153 -0.04478206 0.09112626 -0.08875466 0.06967157 0.090650246 -0.10974345 -0.019760218
-0.10029891 -0.09602513 -0.089474976 -0.017674454 -0.08493862 -0.06177195 0.0066719675 0.04957296
-0.10090274 0.039728105 -0.023161748 -0.014747478 -0.012634842 -0.092241056 -0.060053848 0.036572456
-0.0293075 -0.08233074 -0.109283194 -0.012885512 -0.07185292 -0.022133673 -0.045084905 0.09920585
0.012807518 -0.052776095 -0.1077777 0.04643332 -0.13015956 -0.13842514 -0.028703783 -0.10477057
0.025895007 -0.057016507 -0.044934712 -0.057957 -0.112342246 0.07163705 -0.047142766 -0.106118776
0.057841524 -0.01955419 0.031233484 0.04233112 0.020265907 -0.00068752654 0.04603389 0.04140553
0.05020383 -0.05083172 -0.081557006 -0.13165535 -0.055776276 0.08673413 0.061062157 0.07804699
0.040537626 0.071631074 0.012986298 -0.06285713 -0.14759068 0.039574727 -0.03171321 -0.06528288
0.08291523 0.063432954 0.080170475 -0.15599683 0.07314022 0.07995311 0.021857662 -0.017306203
-0.08403022 -0.04538383 -0.040302657 -0.09104307 -0.37936825 0.084499896 -0.15134382 -0.017039783
0.012739697 0.031216057 -0.08822443 0.08153045 0.06172697 -0.021904998 0.0048653306 0.04136607
-0.03693733 0.031310193 -0.012523478 0.09997043 -0.26447925 -0.3368376 -2.3878005 -0.33408275
0.8526506 -0.0062779873 0.048932396 0.055694617 0.2102815 -0.2254434 0.1365033 -0.02722288
0.04649493 0.036607414 0.16616245 -0.38282418 0.36944997 -0.0066970997 -0.06974248 -0.0671827
-0.49901712 0.24571347 -0.057791006 0.2588574 -0.067977905 -1.1662189 0.05242519 0.06662458
-0.06745814 0.3448134 0.6662188 -0.21750803 0.4140816 0.06091576 0.61289334 0.028577626
-0.38739794 0.5240457 0.5773869 -0.21516146 -1.0135361 0.120479204 0.31872287 -0.27730468
-2.229132 -0.32099766 0.40011382 0.64376956 0.2122484 -0.53112143 0.0051795766 0.006814413
-0.060454525 0.005451207 -0.24034262 0.115500964 0.020381771 -0.0035160563 -0.009931728 -0.046129614
0.0760026 -0.028447352 0.37519982 0.6315471 -0.28481907 0.06920917 0.14130853 0.04403664
-0.0213497 0.011327611 -0.106805004 0.7458607 -0.08291157 -0.3769779 0.052473295 -0.0068765082
-0.014988643 -0.028674953 -0.054290984 0.03159091 0.19619897 0.1737039 0.11724537 0.094698235
0.081902206 0.024771478 -0.010207897 0.01675009 0.05353397 -0.042559963 -0.060903255 -0.004250869
0.07207711 -0.024370441 -0.0041524866 0.6279123 -0.05186887 0.3557643 -0.12529624 0.12670138
-0.13712859 -0.031340737 -0.031924423 -0.053934216 0.3841949 -0.57978666 -0.4063165 -0.05675728
-0.048996408 -0.061034314 0.2581041 -0.33310094 -0.23760846 0.06680639 -0.008077347 -0.035948798
-1.5090394 -0.031232452 0.5680965 -0.45186245 0.14843689 -0.088806234 -0.062247794 -0.048779074
0.07142574 0.41976193 0.32988474 -0.7482875 0.2519971 0.024727058 -0.30585453 -0.059666064
00000000: 68f4 563c 31bb 2fbd f003 753c 0f48 1fbd
00000010: f48e b63b 8a1b e8bd e8e6 cebd 4786 9f3b
00000020: a085 693d 3857 38bd 7445 073d c285 bebd
00000030: 4221 a73c 5397 1dbb 2e2f 11be 3898 c4bc
00000040: 50ba 343d 00ae 3c3d 386d f83c d9e2 96bd
00000050: a00b ae3d 68b7 b6bd 6037 08bb 0d93 5ebd
00000060: 707b abbd 656d 37bd 68a0 ba3d 01c5 b5bd
00000070: f8af 8e3d d6a6 b93d 2dc1 e0bd 2ee0 a1bc
00000080: 8469 cdbd d3a8 c4bd a83e b7bd 04ca 90bc
00000090: 4df4 adbd 9604 7dbd 85a0 da3b 040d 4b3d
000000a0: 19a6 cebd f0b9 223d b5bd bdbc 689f 71bc
000000b0: 5e02 4fbc e1e8 bcbd 06fb 75bd 00cd 153d
000000c0: 4816 f0bc 059d a8bd decf dfbd c11d 53bc
000000d0: a027 93bd ad51 b5bc f3aa 38bd 702c cb3d
000000e0: a0d6 513c bf2b 58bd 8eba dcbd dd30 3e3d
000000f0: 8c48 05be 52bf 0dbe 3224 ebbc f491 d6bd
00000100: c421 d43c 248a 69bd 760d 38bd 5264 6dbd
00000110: b113 e6bd 72b6 923d c618 41bd cd54 d9bd
00000120: 3ceb 6c3d 1c30 a0bc 5ddd ff3c 6663 2d3d
00000130: b004 a63c 203b 34ba 088e 3c3d d898 293d
00000140: 88a2 4d3d ec34 50bd 5c07 a7bd a9d0 06be
00000150: aa75 64bd aaa1 b13d 501c 7a3d 1ad7 9f3d
00000160: c80a 263d 50b3 923d 7bc4 543c 3dbb 80bd
00000170: 0322 17be 1c19 223d b6e5 01bd 08b3 85bd
00000180: 76cf a93d 23e9 813d 6b30 a43d a2bd 1fbe
00000190: 8aca 953d 75be a33d d70e b33c bdc5 8dbc
000001a0: 0918 acbd 65e4 39bd 6614 25bd ca74 babd
000001b0: 8e3c c2be 480e ad3d e0f9 1abe 0497 8bbc
000001c0: 29ba 503c d1b8 ff3c 03af b4bd 70f9 a63d
000001d0: 6bd5 7c3d 1c72 b3bc 5a6d 9f3b 786f 293d
000001e0: 994b 17bd 1e3f 003d 462f 4dbc 4cbd cc3d
000001f0: d369 87be fa75 acbe b9d1 18c0 e50c abbe
00000200: 4f47 5a3f 93b7 cdbb 566d 483d 0a20 643d
00000210: 0954 573e a2da 66be 85c7 0b3e 8402 dfbc
00000220: 7871 3e3d a8f1 153d 7d26 2a3e 8801 c4be
00000230: 8c28 bd3e 5873 dbbb 25d5 8ebd 1597 89bd
00000240: 2c7f ffbe 509c 7b3e 43b6 6cbd f588 843e
00000250: 0038 8bbd a946 95bf ccbb 563d 7872 883d
00000260: 7e27 8abd 628b b03e 518d 2a3f 6dba 5ebe
00000270: 8102 d43e ce82 793d 94e6 1c3f a01b ea3c
00000280: 0659 c6be dc27 063f a1cf 133f 4953 5cbe
00000290: 8dbb 81bf cdbd f63d a52f a33e e1fa 8dbe
000002a0: 19aa 0ec0 ce59 a4be b8db cc3e 15ce 243f
000002b0: a557 593e 93f7 07bf 70b9 a93b 704b df3b
000002c0: 2a9f 77bd 0aa0 b23b 601c 76be c58b ec3d
000002d0: acf7 a63c a36d 66bb b0b8 22bc 68f2 3cbd
000002e0: 40a7 9b3d 6c0a e9bc 311a c03e 12ad 213f
000002f0: ced3 91be 8abd 8d3d 2fb3 103e c45f 343d
00000300: 91e5 aebc 7297 393c 95bc dabd baf0 3e3f
00000310: 8bcd a9bd 3f03 c1be 3dee 563d 5554 e1bb
00000320: ed92 75bc bce7 eabc 3960 5ebd 7865 013d
00000330: 62e8 483e 6fdf 313e 571e f03d 26f1 c13d
00000340: 58bc a73d 8eed ca3c 063f 27bc 7c37 893c
00000350: 7046 5b3d 5b53 2ebd b175 79bd e04a 8bbb
00000360: 2a9d 933d 85a4 c7bc 9511 88bb dcbe 203f
00000370: 7474 54bd bd26 b63e a84d 00be 02be 013e
00000380: 706b 0cbe 255f 00bd 2fc3 02bd 20ea 5cbd
00000390: 32b5 c43e e66c 14bf b708 d0be 527a 68bd
000003a0: 75b0 48bd 1eff 79bd 3826 843e 358c aabe
000003b0: a24f 73be cad1 883d d956 04bc 0c3f 13bd
000003c0: 3428 c1bf 33db ffbc c66e 113f 845a e7be
000003d0: d7ff 173e 0be0 b5bd 8bf7 7ebd 91cc 47bd
000003e0: a947 923d 09eb d63e a7e6 a83e c58f 3fbf
000003f0: c405 813e 6690 ca3c f798 9cbe 6764 74bd

bias f4 [16]
-0.12095767 0.21401854 0.34882614 -0.121793315 -0.069690324 0.39534694 -0.07299272 0.17236589
0.3496518 -0.10986175 0.3573707 0.09923554 -0.020615282 0.3083052 -0.01672687 -0.013618725
00000000: a8b8 f7bd ad27 5b3e 5799 b23e c66e f9bd
00000010: cdb9 8ebd ea6a ca3e 357d 95bd af80 303e
00000020: 9005 b33e 32ff e0bd 4bf9 b63e 013c cb3d
00000030: 61e1 a8bc 2eda 9d3e ca06 89bc 1321 5fbc

weight f4 [16, 64]
0.053811267 -0.062186416 0.08922049 0.12947403 0.34730256 0.29277045 0.21802281 -0.3926686
0.62859935 0.6455546 0.36456782 0.39983705 0.0032874835 0.027586358 -0.035281718 -0.16574118
-0.00803443 0.03721266 0.0034906685 0.09011088 -0.5028304 0.4383488 0.11288706 -0.34555689
-0.104896836 -0.08204859 -0.10175764 -0.10969611 -0.24793683 -0.3681962 -0.08771421 -0.42552984
-1.0986756 -0.67169034 -0.31112683 0.30470812 -0.06303058 0.012646488 -0.103004985 -0.053727187
0.3030528 0.18406646 -0.63263994 0.5143077 -0.34670857 0.098814756 -0.11887425 0.23204036
0.04109802 0.06008405 -0.023078991 0.06608126 0.51525944 0.51467973 -0.054178894 0.09991135
0.14501195 0.058682572 -0.088267885 -0.070751764 0.059851132 -0.13320826 -0.10715523 -0.0031566992
-0.060372222 -0.07956972 0.12564588 -0.0815497 -0.60574585 -0.0331118 -0.09929067 0.06421423
0.49944568 0.65550286 0.021902777 0.005710726 0.026907923 0.012364918 0.09888873 -0.03800467
-0.046374433 0.025374217 0.052525137 -0.020255394 0.7211412 0.1933358 0.95008606 -0.41598544
-0.08330383 -0.042904925 -0.0012392828 0.13361245 -0.44208837 -0.4802243 -0.40052626 0.047469784
-0.46870372 -0.563063 0.098932214 -0.005607235 0.20449609 -0.011011089 -0.087787524 -0.12956458
0.51363313 -0.10895695 -0.4074 -0.24551792 0.80729973 0.16213773 0.5095393 -0.22133093
-0.06519567 -0.10772479 -0.04322126 0.0084862895 -0.25180382 0.39530626 -0.8358572 0.048068784
-0.05761099 -0.04535012 0.08048382 -0.034233842 0.061808642 -0.118414074 0.017910471 0.04235755
-0.07226679 -0.0026432183 -0.05010504 0.04378774 -0.14350066 -0.9816202 0.01203432 0.48898333
0.51083815 0.36579275 0.26255918 -0.25977477 -0.062055428 -0.008903784 0.0052692024 -0.09359584
0.0005937634 0.13493147 0.13125844 0.13124754 0.38569215 0.28934357 0.3620711 0.52762264
0.011661705 0.022520373 0.10594555 -0.049308572 -0.60653204 -0.5158774 -0.36831564 -0.26150903
-0.6023189 0.07559731 -0.43046543 0.0766552 0.013225169 0.07866203 0.11282051 0.09524311
0.4838751 0.23696811 -0.4697874 0.094020866 0.8006696 0.68969464 0.048530042 0.19741522
0.00946336 0.046192262 0.022761162 0.09982906 -0.063305005 -0.29562336 0.01046644 -0.5055095
0.07317637 0.060200732 -0.0028165441 0.02345388 -0.08662769 -0.10571832 -0.040883128 -0.09439931
-0.02862998 -0.044106174 -0.097863264 0.025028199 0.09845337 0.6986337 -0.67802155 0.9336217
0.38364807 0.35366255 0.44134223 -0.067235105 0.0211407 -0.029529091 0.0842091 0.050179224
0.101276554 0.08467777 0.028229028 -0.05236867 -0.143944 0.08921738 0.046586256 0.22470136
0.04715093 -0.15035142 0.014888459 0.09058007 -0.105225295 -0.036714792 -0.038073093 -0.1480676
-0.84786534 -0.57328695 -0.047411986 -0.05871395 -0.052424293 0.08121758 -0.018330479 -0.03043526
-0.27852982 -0.0501556 0.25766447 -0.4840275 -0.3732916 -0.31959343 0.117974445 -0.3610091
-0.07332454 -0.048118018 -0.087893546 0.045851707 0.22756514 0.61666125 0.071918614 -0.24601282
-0.020746935 0.06646535 0.054713327 -0.037441213 -0.0071366713 -0.13987423 -0.076320514 0.07765753
00000000: 3469 5c3d 2fb7 7ebd 3bb9 b63d d794 043e
00000010: a4d1 b13e 02e6 953e 5f41 5f3e dc0b c9be
00000020: e3eb 203f 1143 253f a2a8 ba3e 71b7 cc3e
00000030: d272 573b c9fc e13c 9083 10bd 0eb8 29be
00000040: d8a2 03bc 4d6c 183d b3c3 643b 0e8c b83d
00000050: 7eb9 00bf 416f e03e 5531 e73d d5ec b0be
00000060: 27d4 d6bd 1709 a8bd 4f66 d0bd 5ba8 e0bd
00000070: 27e3 7dbe 3684 bcbe 82a3 b3bd 0cdf d9be
00000080: 67a1 8cbf e6f3 2bbf 044c 9fbe b402 9c3e
00000090: 2d16 81bd 3733 4f3c 47f4 d2bd 0a11 5cbd
000000a0: bd29 9b3e eb7b 3c3e b1f4 21bf aba9 033f
000000b0: c983 b1be 645f ca3d 5874 f3bd fd9b 6d3e
000000c0: 6656 283d b11a 763d 2710 bdbc 9d55 873d
000000d0: 0be8 033f 0dc2 033f b0ea 5dbd 529e cc3d
000000e0: 037e 143e 235d 703d cbc5 b4bd 4de6 90bd
000000f0: 7626 753d bf67 08be 3474 dbbd a0e0 4ebb
00000100: dd48 77bd 73f5 a2bd 50a9 003e 8703 a7bd
00000110: 2912 1bbf 3da0 07bd e858 cbbd c082 833d
00000120: 58b7 ff3e 09cf 273f 746d b33c 0b21 bb3b
00000130: 016e dc3c 3a96 4a3c 2d86 ca3d c9aa 1bbd
00000140: 1ef3 3dbd 97dd cf3c 9924 573d a4ee a5bc
00000150: b69c 383f d2f9 453e d738 733f 0bfc d4be
00000160: 339b aabd 13bd 2fbd 6e6f a2ba b4d1 083e
00000170: 6859 e2be f6df f5be c711 cdbe ad6f 423d
00000180: eff9 efbe e624 10bf f99c ca3d e5bc b7bb
00000190: 6c67 513e db67 34bc f2c9 b3bd 94ac 04be
000001a0: 767d 033f d224 dfbd bc96 d0be 0d69 7bbe
000001b0: 32ab 4e3f 6f07 263e 2b71 023f 93a4 62be
000001c0: 4f85 85bd d19e dcbd c708 31bd 140a 0b3c
000001d0: 6eec 80be 9565 ca3e bdfa 55bf c6e3 443d
000001e0: 80f9 6bbd 0cc1 39bd b3d4 a43d c938 0cbd
000001f0: 0f2b 7d3d 1483 f2bd fbb8 923c 1c7f 2d3d
00000200: 9c00 94bd d839 2dbb f13a 4dbd c65a 333d
00000210: d6f1 12be 764b 7bbf 992b 453c 065c fa3e
00000220: 4ac6 023f 3049 bb3e 286e 863e 3301 85be
00000230: d52d 7ebd 2de1 11bc 46a9 ac3b 2daf bfbd
00000240: caa6 1b3a 7a2b 0a3e 9d68 063e c165 063e
00000250: 7179 c53e d724 943e 6261 b93e 4712 073f
00000260: bc10 3f3c a57c b83c fbf9 d83d c9f7 49bd
00000270: af45 1bbf 8b10 04bf de93 bcbe 83e4 85be
00000280: 9231 1abf c3d2 9a3d f765 dcbe 67fd 9c3d
00000290: 61ae 583c 8f19 a13d 710e e73d d20e c33d
000002a0: 7abe f73e c5a7 723e f987 f0be 038e c03d
000002b0: aff8 4c3f d48f 303f 70c7 463d 3727 4a3e
000002c0: 350c 1b3c 1934 3d3d 9e75 ba3c 2e73 cc3d
000002d0: 0ea6 81bd f25b 97be 6e7b 2b3c 1269 01bf
000002e0: 7edd 953d 0b95 763d c595 38bb 5a22 c03c
000002f0: dc69 b1bd d982 d8bd 1175 27bd 6d54 c1bd
00000300: 6b89 eabc ada8 34bd 896c c8bd f007 cd3c
00000310: eca1 c93d a8d9 323f d292 2dbf d501 6f3f
00000320: 856d c43e 4213 b53e 9cf7 e13e 8fb2 89bd
00000330: 432f ad3c fee6 f1bc d275 ac3d bb88 4d3d
00000340: 156a cf3d 8a6b ad3d 9040 e73c 8880 56bd
00000350: 0e66 13be 9ab7 b63d 3bd1 3e3d 1d18 663e
00000360: 5521 413d b9f5 19be b9ee 733c 0b82 b93d
00000370: 5c80 d7bd 4062 16bd 88f2 1bbd 089f 17be
00000380: b40d 59bf efc2 12bf 1233 42bd 0a7e 70bd
00000390: dbba 56bd 6755 a63d cd29 96bc 5e53 f9bc
000003a0: 769b 8ebe f56f 4dbd 99ec 833e 74d2 f7be
000003b0: 1420 bfbe c0a1 a3be 969c f13d 2fd6 b8be
000003c0: 2d2b 96bd 6617 45bd 8801 b4bd 00cf 3b3d
000003d0: d606 693e 83dd 1d3f 114a 933d c9ea 7bbe
000003e0: 7af5 a9bc fc1e 883d 151b 603d f55b 19bd
000003f0: bdda e9bb 313b 0fbe ee4d 9cbd e90a 9f3d

bias f4 [16]
-0.39980283 0.029944694 -0.28069055 -0.18302666 -0.08152515 0.50300306 0.20389932 0.8214848
-0.22621311 0.6647791 0.52508795 0.26103106 0.5065167 -0.12230245 -0.15826353 -0.24912496
00000000: f5b2 ccbe 934e f53c acb6 8fbe 576b 3bbe
00000010: a8f6 a6bd cfc4 003f fcca 503e d44c 523f
00000020: 69a4 67be f72e 2a3f 2a6c 063f dda5 853e
00000030: 14ab 013f b579 fabd d60f 22be 9d1a 7fbe

weight f4 [64, 16]
-0.14796141 0.05642865 0.13642086 -0.12464377 -0.18629521 -0.23353162 -0.051569704 0.38514313
0.43984577 0.27212653 -0.06738123 0.06714245 0.20123208 -0.11797061 -0.11899995 -0.21587355
0.49599507 -0.05299065 0.36533466 0.23476318 0.13424627 0.16538581 0.5361146 0.57997495
0.22205691 -0.16702163 0.1861999 0.2154715 -0.14274433 0.34528017 -0.008782187 0.44165426
-0.3643771 0.38405183 -0.541312 0.40725464 0.15785246 -0.2152619 -0.8100142 -0.14466682
0.7445724 0.16064548 -0.310791 0.857529 0.1357336 -0.07322224 -0.7965698 -0.6010432
-0.3292348 -0.09318788 0.14716451 0.51789 -1.3274668 -0.37063646 -0.46383607 0.66448337
0.07192702 -0.2649837 0.17986813 0.36463755 0.24209468 0.3710481 0.616198 0.17180066
0.2751648 -0.087416306 0.27921212 -0.37623382 0.115781724 -0.3377934 0.13082786 -0.33212617
0.51083475 -0.5570818 -0.30619848 -0.2351877 1.0613873 -0.050034314 -0.15407167 0.032080274
0.21250172 -0.06817421 -0.17345503 0.1196691 -0.077074274 0.27423057 0.28781036 0.26016045
0.5162781 -0.046038598 -0.42325553 -0.15060733 0.6342931 0.092711665 -0.3155458 0.40235898
1.143002 1.131307 0.10602834 -0.27709448 -0.120633006 0.29899707 -0.38493818 -0.03761675
-0.3766627 -0.2321517 -0.59133226 0.09269961 -0.39432675 0.86917835 0.1907492 0.121643715
0.29560435 -0.16470549 -0.68352497 -0.6044049 -0.18784982 -0.99415934 0.41507572 0.02654728
0.4505124 0.06568868 0.0070667034 -0.3697432 -0.31050324 0.31360573 0.32686114 -0.48827565
-0.28388098 0.33281425 0.17449956 0.099200346 0.07531459 -0.5417104 0.5677371 -0.24253286
0.0024366556 0.21503563 0.60395795 0.3497816 -0.48099586 -0.0036022363 0.50529397 0.010817803
0.10401102 -0.04063334 -0.15928037 0.2215128 -0.55792433 0.24185567 -0.36666048 0.4098202
-0.26487663 0.2093677 -0.37134632 -0.2823061 -0.46504828 -0.21394946 -0.81106144 -0.21822055
-0.09491483 -0.1272659 -0.51150966 0.8093956 0.010181741 0.51318437 -0.122425355 0.6493328
0.06452056 0.13087538 -0.4852757 -0.93352616 -0.025858533 0.2508913 -0.5007236 0.287889
-0.0071596084 -0.37786782 0.74725497 0.19045965 -0.30322602 -0.36170745 0.03418604 -0.61427486
-0.02786558 0.041163187 0.10700017 -0.080114946 -0.1511541 0.058659233 -0.32110524 0.52061564
0.23773722 -0.43345037 0.29206386 0.2453703 -0.54188037 0.31919155 -0.16093332 0.33296484
-0.5597574 0.26815188 -0.022000477 -0.30330715 0.026518585 0.3742665 -0.21097922 -0.27741605
-0.2943996 0.038270235 0.1541749 -0.014547963 0.5159707 -0.3007163 -0.81043696 -0.298697
-0.10409795 0.109749176 0.15364715 -0.35254794 0.030851685 0.550814 0.29016054 -0.67294383
-0.045510847 -0.34679824 0.4349353 0.3541571 -0.38408542 0.22109404 0.42986453 -0.38064295
0.2519469 -0.50922734 0.29187045 -0.081131406 -0.038213752 0.21387717 0.30198425 -0.1330323
0.058877446 -0.056627765 0.28385141 0.33856395 -1.2706308 0.5740532 -0.17109844 -0.4437463
0.8500313 -0.27733344 -0.11432572 -0.3132368 -0.4700493 0.23305073 -0.050214667 -0.3366435
00000000: 3283 17be ba21 673d e9b1 0b3e 3c45 ffbd
00000010: 2cc4 3ebe ea22 6fbe c13a 53bd 7b31 c53e
00000020: 7733 e13e 2b54 8b3e 2cff 89bd fb81 893d
00000030: c80f 4e3e 939a f1bd 3fb6 f3bd f50d 5dbe
00000040: 11f3 fd3e b90c 59bd 250d bb3e c265 703e
00000050: db77 093e e65a 293e ce3e 093f 3d79 143f
00000060: e362 633e b807 2bbe 30ab 3e3e 90a4 5c3e
00000070: 922b 12be 90c8 b03e 29e3 0fbc 8220 e23e
00000080: a38f babe 71a2 c43e 6c93 0abf ae83 d03e
00000090: 13a4 213e 9e6d 5cbe 175d 4fbf 8a23 14be
000000a0: 4c9c 3e3f 4080 243e ff1f 9fbe 0587 5b3f
000000b0: c0fd 0a3e 8bf5 95bd 00ec 4bbf f8dd 19bf
000000c0: 7791 a8be 4ad9 bebd 4bb2 163e 7094 043f
000000d0: 6fea a9bf 10c4 bdbe ec7b edbe 951b 2a3f
000000e0: 794e 933d f2ab 87be 5a2f 383e c6b1 ba3e
000000f0: abe7 773e 04fa bd3e 27bf 1d3f 83ec 2f3e
00000100: 67e2 8c3e 5207 b3bd e4f4 8e3e b8a1 c0be
00000110: f81e ed3d 42f3 acbe bdf7 053e 710c aabe
00000120: 11c6 023f ea9c 0ebf 0cc6 9cbe 0bd5 70be
00000130: 8adb 873f c8f0 4cbd f7c4 1dbe 9b66 033d
00000140: 0d9a 593e ec9e 8bbd 329e 31be 1315 f53d
00000150: 1ed9 9dbd f367 8c3e e15b 933e c033 853e
00000160: cd2a 043f f892 3cbd f3b4 d8be cf38 1abe
00000170: 0861 223f 9ddf bd3d 388f a1be ff01 ce3e
00000180: e44d 923f abce 903f 6325 d93d 54df 8dbe
00000190: 700e f7bd 2516 993e 9e16 c5be 0514 1abd
000001a0: efd9 c0be 2db9 6dbe 8d61 17bf 4bd9 bd3d
000001b0: 32e5 c9be 7982 5e3f c253 433e 5720 f93d
000001c0: 7459 973e 8ea8 28be 7efb 2ebf 48ba 1abf
000001d0: b45b 40be 3a81 7ebf ce84 d43e ae79 d93c
000001e0: 90a9 e63e c987 863d ce8f e73b fb4e bdbe
000001f0: 48fa 9ebe ee90 a03e 585a a73e 44ff f9be
00000200: d958 91be a166 aa3e 03b0 323e 8d29 cb3d
00000210: 893e 9a3d 88ad 0abf 3857 113f 895a 78be
00000220: 4cb0 1f3b 4d32 5c3e fd9c 1a3f 9316 b33e
00000230: 1745 f6be 7f13 6cbb f25a 013f 283d 313c
00000240: bb03 d53d 256f 26bd 651a 23be 40d4 623e
00000250: 21d4 0ebf 03a9 773e ecba bbbe f4d3 d13e
00000260: e99d 87be 7d64 563e 1b21 bebe 6d8a 90be
00000270: cf1a eebe 9115 5bbe b9a1 4fbf 3575 5fbe
00000280: b562 c2bd fe51 02be 4cf2 02bf 8d34 4f3f
00000290: 51d1 263c 0d60 033f 25ba fabd ad3a 263f
000002a0: 5b23 843d 3204 063e 0e76 f8be 92fb 6ebf
000002b0: 46d5 d3bc d374 803e 6c2f 00bf 3066 933e
000002c0: 269b eabb e477 c1be 1a4c 3f3f db07 433e
000002d0: 7140 9bbe b831 b9be a906 0c3d 1e41 1dbf
000002e0: 5b46 e4bc bb9a 283d e822 db3d 4e13 a4bd
000002f0: 24c8 1abe aa44 703d e867 a4be 1147 053f
00000300: 6371 733e 35ed ddbe 6589 953e 5a42 7b3e
00000310: acb8 0abf 136d a33e b4cb 24be 5e7a aa3e
00000320: 434c 0fbf 344b 893e 583a b4bc 134b 9bbe
00000330: 813d d93c dc9f bf3e f00a 58be 7a09 8ebe
00000340: 8bbb 96be 40c1 1c3d 06e0 1d3e 945a 6ebc
00000350: a816 043f 7df7 99be cc78 4fbf d0ee 98be
00000360: 4e31 d5bd 2dc4 e03d ae55 1d3e 2a81 b4be
00000370: acbc fc3c 2502 0d3f ec8f 943e 0c46 2cbf
00000380: 9569 3abd 8a8f b1be d7af de3e 1454 b53e
00000390: d8a6 c4be 7a66 623e 3417 dc3e a2e3 c2be
000003a0: 2fff 803e b95c 02bf 0b70 953e 3928 a6bd
000003b0: 0686 1cbd 9e02 5b3e ae9d 9a3e 9f39 08be
000003c0: 7a29 713d 84f2 67bd f954 913e 4158 ad3e
000003d0: 08a4 a2bf 27f5 123f 6e34 2fbe b732 e3be
000003e0: a79b 593f a6fe 8dbe 9a23 eabd 9360 a0be
000003f0: 4daa f0be daa4 6e3e e5ad 4dbd 895c acbe

bias f4 [64]
1.1775982 0.5358723 -0.26298988 -1.0228912 -0.40299252 0.96597457 -0.576033 -0.063559674
-1.0049114 0.87969434 0.47821268 -0.7075388 1.6281528 -0.86449605 -0.49955082 -0.5942609
0.094900616 -1.2346642 0.05199907 0.28047457 -1.9448237 0.05939232 -0.29716793 0.107896455
-1.0008854 -1.6662736 -1.0679175 -1.255937 -0.98490524 0.118577115 1.0766922 -0.43177253
1.417563 -1.0790011 -0.32212418 0.8150686 -0.9197611 1.173198 -0.69721305 1.0676026
2.1820316 -1.549592 0.20998123 -1.3115754 -1.5710864 -1.7282377 -0.35121065 0.6079624
0.6455627 0.1884524 1.1056983 1.4585129 1.6865901 0.005896941 -1.4593683 1.141701
0.11052879 0.030710554 -0.43135002 0.040792137 -0.21896502 1.6309772 1.3928748 -0.37992784
00000000: 8abb 963f ed2e 093f 9ca6 86be 19ee 82bf
00000010: 0955 cebe 1c4a 773f e676 13bf 932b 82bd
00000020: f0a0 80bf a633 613f 4bd8 f43e 4321 35bf
00000030: 5067 d03f 9d4f 5dbf 20c5 ffbe 7b21 18bf
00000040: 415b c23d 7a09 9ebf fafc 543d 5d9a 8f3e
00000050: fcef f8bf 5d45 733d 6526 98be d1f8 dc3d
00000060: 031d 80bf 7448 d5bf 85b1 88bf 8bc2 a0bf
00000070: c022 7cbf 8fd8 f23d 0dd1 893f 4a11 ddbe
00000080: b472 b53f b51c 8abf 76ed a4be 56a8 503f
00000090: 7775 6bbf 5a2b 963f 8e7c 32bf 34a7 883f
000000a0: 68a6 0b40 0859 c6bf 5205 573e b4e1 a7bf
000000b0: 5c19 c9bf e536 ddbf e2d1 b3be 6da3 1b3f
000000c0: 9943 253f aaf9 403e 8687 8d3f 8db0 ba3f
000000d0: 2fe2 d73f 203b c13b 95cc babf 4223 923f
000000e0: eb5c e23d b394 fb3c e9d9 dcbe a815 273d
000000f0: 5e38 60be dcc3 d03f b949 b23f e785 c2be

weight f4 [13, 4]
-0.0010829602 -0.0032289817 -0.002689365 0.0070746806 0.012577545 0.01069956 0.01567581 -0.007077536
-0.56796294 -0.36277515 -0.015547842 0.1230119 -0.1908175 -0.23848416 -0.0068719843 0.039486572
0.27155808 0.3938569 0.13067645 -0.1052555 -0.18624537 0.23840202 -0.1079101 0.065615654
0.161515 -0.10745165 -0.36432043 0.13298106 -0.09559662 0.17029226 -0.10874152 0.0978013
-0.11684476 0.07305131 0.31732956 -0.14932716 0.2236282 -0.24658687 0.05103323 -0.11631927
0.05276117 0.01600029 0.14895721 0.4240456 -0.042527545 -0.029070752 -0.10893101 -0.24262589
-0.058095265 0.0018082897 -0.13153479 -0.30662587
00000000: 1df2 8dba 539d 53bb 0f40 30bb b9d2 e73b
00000010: 0c12 4e3c 354d 2f3c 8e6a 803c adea e7bb
00000020: 0566 11bf aabd b9be 60bc 7ebc aaed fb3d
00000030: aa65 43be 3135 74be 622e e1bb acbc 213d
00000040: a909 8b3e 9da7 c93e 0cd0 053e 3290 d7bd
00000050: 1bb7 3ebe a91f 743e f8ff dcbd 8061 863d
00000060: 3064 253e 9c0f dcbd 3588 babe 302c 083e
00000070: 29c8 c3bd 1861 2e3e e0b3 debd 0c4c c83d
00000080: 4e4c efbd ed9b 953d 0579 a23e 38e9 18be
00000090: cafe 643e 4581 7cbe 3808 513d cc38 eebd
000000a0: 191c 583d 0a13 833c 3d88 183e 811c d93e
000000b0: 5d31 2ebd c925 eebc 3917 dfbd ec72 78be
000000c0: 4df5 6dbd 2204 ed3a 0eb1 06be 11fe 9cbe

bias f4 [13]
1.6620129 -0.2270392 0.18029588 0.53488463 0.07950502 0.59043795 -0.11393332 -0.17410626
0.15513462 -0.1443661 0.13936119 -0.47267014 0.18148646
00000000: d7bc d43f f77c 68be 7c9f 383e 33ee 083f
00000010: 87d3 a23d f126 173f df55 e9bd e948 32be
00000020: 9cdb 1e3e b5d4 13be b3b4 0e3e d201 f2be
00000030: 96d7 393e

weight f4 [16, 32, 3]
0.2617138 0.20404857 0.7613472 0.25740775 -0.7831913 -0.37122902 -0.134987 0.16141851
-0.076729916 -0.8845909 0.6253807 0.2533867 0.33099538 -0.059913356 0.4346511 -0.776983
-0.7481263 -0.088313766 -0.17108604 0.3838578 0.17412004 -0.53016394 -0.06372471 0.10121532
-0.1477647 0.043571014 0.60712564 0.068796106 0.34262812 -0.3393435 0.48938236 -0.5925656
-0.16589689 0.54850537 -0.38090083 -0.470018 0.075575694 -0.44297385 0.8229917 -0.06843314
0.38133985 0.08462872 0.085328385 0.14081112 -0.0042078453 0.31238627 -0.08981371 0.074573115
-0.17267641 0.09825493 1.0923481 -0.08187271 0.14448024 0.3681213 0.026088128 -0.33695868
-0.34048685 -0.26501954 0.5291007 0.301855 0.34856397 -0.11549247 0.19713555 -0.9807138
0.47249603 0.3495592 0.1905595 -0.67879623 -0.49472314 -0.31993562 -0.7257607 0.56887597
0.2746187 -0.23626782 0.0031020513 -0.40405893 -0.13986789 -0.2746484 0.25095293 -0.13024713
0.3680851 0.84103256 0.57702285 -0.09242825 0.22990654 -0.11383118 -0.15926881 0.35336658
-0.33573458 -0.045666028 0.059570864 0.15728432 0.5218547 0.8123901 0.386876 -0.82885176
0.25667423 -0.8845246 0.27419364 0.51885045 -0.13167256 0.4842753 0.8477958 -0.4843975
-0.043819115 0.32428518 -0.02759975 -0.37358716 0.115270935 -0.48155963 0.9615194 0.08564689
-0.44617108 -0.2465381 0.033443224 -0.24669379 0.3312474 -0.17822506 0.1771654 0.3593059
0.44151133 -0.40475944 -0.11708298 0.6711083 0.07186531 -0.7156735 0.045783453 -0.22830646
-0.4881594 -0.25458804 -0.20236473 0.32530028 0.77108663 0.08381726 -0.8185869 -0.4509722
0.35149938 -0.81989664 -0.7217065 0.23177844 -0.017146412 0.30155215 0.31531462 0.036452934
-0.41312125 0.1036884 0.3550524 -0.23977675 -0.29165813 0.050906662 0.73868334 -0.2883644
-0.13321993 -0.41640708 -0.39398623 -0.13449281 0.18247436 -0.3607224 -0.4526443 -0.10145624
-0.3147067 -0.2566546 0.5284665 0.39861017 -0.05836127 0.29073435 0.10526414 0.44824293
-0.77746236 -0.6061291 0.21479432 0.085644595 0.046009917 0.42320225 -0.20474556 -0.2708711
0.44500056 -0.08683209 -0.18533991 0.069761716 -0.222565 -0.6292972 -0.57317406 0.40698493
-1.1771669 0.28220615 0.20612451 0.0344441 0.2960382 -0.14455819 0.39330205 0.84128225
1.0948557 -0.82890564 0.84554785 -0.061723202 -0.35828784 0.26740268 -0.25609738 0.35645467
0.2199769 -0.38032317 -0.27865955 0.077081546 -0.4150921 0.0844795 -0.052306835 0.36914042
-0.23962402 -0.15558307 -0.19718872 0.28050083 -0.7566744 0.1883865 0.5144759 0.52297133
-0.013715623 0.34751442 0.21231319 -0.3533968 0.4770001 -0.35760155 0.19878675 0.12719524
-0.3043498 0.22172344 -0.8446258 -0.06393213 0.079629414 0.65158564 -0.22950192 0.10446403
-0.3229474 -0.108412474 0.56428176 0.07384571 -0.0101651 0.5564249 -0.2704222 0.41292286
0.75687456 -0.34678596 0.041178282 0.023104204 0.052141044 0.67608637 -0.09637677 -0.68144625
0.70065755 -0.81912833 0.5434311 0.2842541 -0.2340401 -0.7161163 -0.23943438 -0.087154604
00000000: 5aff 853e 1cf2 503e a6e7 423f f3ca 833e
00000010: 3a7f 48bf bb11 bebe 083a 0abe e54a 253e
00000020: 9324 9dbd 8d74 62bf f318 203f e7bb 813e
00000030: 3a78 a93e b567 75bd 978a de3e 5ce8 46bf
00000040: 3585 3fbf d9dd b4bd 2e31 2fbe 0289 c43e
00000050: 864c 323e d3b8 07bf 1a82 82bd fa49 cf3d
00000060: a14f 17be 8577 323d 966c 1b3f f9e4 8c3d
00000070: f46c af3e 6ebe adbe 5390 fa3e 61b2 17bf
00000080: e0e0 29be d96a 0c3f 6f05 c3be 33a6 f0be
00000090: 6ec7 9a3d 78cd e2be 96af 523f ad26 8cbd
000000a0: fa3e c33e d351 ad3d a6c0 ae3d ca30 103e
000000b0: f7e1 89bb 18f1 9f3e 40f0 b7bd cab9 983d
000000c0: 16d2 30be e139 c93d 10d2 8b3f e1ac a7bd
000000d0: a1f2 133e 657a bc3e c5b6 d53c d985 acbe
000000e0: 4b54 aebe a4b0 87be 2573 073f bd8c 9a3e
000000f0: fa76 b23e 5187 ecbd e7dd 493e 0f10 7bbf
00000100: 00eb f13e 6cf9 b23e 0822 433e 97c5 2dbf
00000110: 5a4c fdbe 9ace a3be 74cb 39bf dba1 113f
00000120: d29a 8c3e 31f0 71be c94b 4b3b d0e0 cebe
00000130: 8739 0fbe b79e 8cbe e77c 803e 815f 05be
00000140: a675 bc3e e94d 573f c5b7 133f 064b bdbd
00000150: 9f6c 6b3e 5220 e9bd 5d17 23be 77ec b43e
00000160: 67e5 abbe 4d0c 3bbd 9400 743d 240f 213e
00000170: 4598 053f ccf8 4f3f 9c14 c63e a12f 54bf
00000180: ce6a 833e 3470 62bf 1c63 8c3e 62d3 043f
00000190: 2cd5 06be eff2 f73e 2509 593f f302 f8be
000001a0: ac7b 33bd b508 a63e df18 e2bc d146 bfbe
000001b0: 2b13 ec3d fc8e f6be 2326 763f a367 af3d
000001c0: 8970 e4be 7c74 7cbe c3fb 083d 4c9d 7cbe
000001d0: 4299 a93e a180 36be d96a 353e f1f6 b73e
000001e0: c60d e23e a13c cfbe 34c9 efbd c1cd 2b3f
000001f0: 1f2e 933d 6136 37bf 6e87 3b3d 2bc9 69be
00000200: 07f0 f9be 5d59 82be b338 4fbe c28d a63e
00000210: ef65 453f 62a8 ab3d e98e 51bf d4e5 e6be
00000220: baf7 b33e bfe4 51bf c2c1 38bf 5457 6d3e
00000230: a276 8cbc 0b65 9a3e eb70 a13e ac4f 153d
00000240: a184 d3be 955a d43d 6ec9 b53e 0988 75be
00000250: 3754 95be 8183 503d 5a1a 3d3f 80a4 93be
00000260: ce6a 08be 4f33 d5be 90b8 c9be 7cb8 09be
00000270: 8fda 3a3e 9bb0 b8be fec0 e7be 4ac8 cfbd
00000280: 3d21 a1be 3b68 83be 9549 073f a216 cc3e
00000290: 3a0c 6fbd 22db 943e ba94 d73d 1980 e53e
000002a0: c607 47bf 472b 1bbf 0bf3 5b3e 6f66 af3d
000002b0: e574 3c3d f7ad d83e d2a8 51be 9eaf 8abe
000002c0: 1dd7 e33e 06d5 b1bd bfc9 3dbe 3bdf 8e3d
000002d0: 14e8 63be 9f19 21bf 89bb 12bf 5460 d03e
000002e0: 68ad 96bf 537d 903e 4e12 533e 4215 0d3d
000002f0: 5292 973e 1007 14be e35e c93e 465e 573f
00000300: 3b24 8c3f 2933 54bf d375 583f 78d1 7cbd
00000310: 8171 b7be 01e9 883e 321f 83be 3a81 b63e
00000320: a041 613e b8b9 c2be 77ac 8ebe eedc 9d3d
00000330: f486 d4be 9703 ad3d b13f 56bd f9ff bc3e
00000340: 0060 75be 2b51 1fbe d7eb 49be ce9d 8f3e
00000350: 6ab5 41bf 64e8 403e b1b4 033f 73e1 053f
00000360: 7eb7 60bc 69ed b13e a168 593e 6df0 b4be
00000370: 5b39 f43e 8d17 b7be c18e 4b3e 783f 023e
00000380: bdd3 9bbe 780b 633e 6539 58bf d9ee 82bd
00000390: bf14 a33d 51ce 263f 8d02 6bbe 3df1 d53d
000003a0: 5d59 a5be 5c07 debd c574 103f 6b3c 973d
000003b0: 858b 26bc dd71 0e3f c774 8abe a06a d33e
000003c0: 88c2 413f ee8d b1be 8faa 283d 0745 bd3c
000003d0: d991 553d ff13 2d3f 2f61 c5bd 4373 2ebf
000003e0: 4b5e 333f 65b2 51bf 4d1e 0b3f c189 913e
000003f0: 35a8 6fbe 6653 37bf 492e 75be 1d7e b2bd

bias f4 [32]
-0.7329342 -0.8629022 -1.0831654 -0.68457407 -0.92841333 -0.29377908 -1.283962 -0.3814927
-0.85039383 0.026864048 0.5999194 -1.142473 -0.89006984 -1.0339779 -0.5969943 -1.0266817
-0.708328 -0.042238567 -0.589826 -1.0052149 -0.96459806 -0.40594375 -1.1493462 -1.2871797
-0.33459505 -0.6704405 -0.8088116 -0.89624906 -1.1111002 -0.54616916 -0.9030382 -1.1905849
00000000: 93a1 3bbf 29e7 5cbf 2aa5 8abf 3f40 2fbf
00000010: 7fac 6dbf 366a 96be de58 a4bf 0353 c3be
00000020: 69b3 59bf fe11 dc3c 5194 193f 8e3c 92bf
00000030: 9edb 63bf 6359 84bf 9ed4 18bf 4e6a 83bf
00000040: fc54 35bf 5902 2dbd d6fe 16bf e2aa 80bf
00000050: e6ef 76bf dcd7 cfbe c71d 93bf 4ec2 a4bf
00000060: 0b50 abbe fda1 2bbf 470e 4fbf 9470 65bf
00000070: 8838 8ebf bed1 0bbf 832d 67bf 1665 98bf
